Task1/model3(2).pth (torch, 59170 bytes, 12 tensors)

fc1.weight f4 [16, 784]
000000 65 87 e2 3b 45 f3 9b 3c 93 62 14 3c 77 e3 a1 bc
       0.006913113 0.019036898 0.009056705 -0.019761784
000010 1c 01 c2 3b 33 7a 11 bc 0e 3a 75 3c 3c 91 88 3c
       0.0059205424 -0.008879232 0.014967455 0.016670816
000020 93 18 29 3c f7 98 32 bc 11 df bc bc 81 e1 4b 3b
       0.0103208 -0.0109007275 -0.023055585 0.0031109753
000030 a6 71 3d 3c df 1d d6 bc a4 d0 08 3d 57 57 fd bc
       0.01156274 -0.02613729 0.0334021 -0.030925436
000040 89 84 a8 bc a3 1b c9 3b a1 1f 2c bb 5f 66 62 bc
       -0.02057101 0.0061373278 -0.002626397 -0.0138183525
000050 3b bb 93 3c 0e 97 5a 3c 5e 7f e0 bc 51 1f fb 3c
       0.018033614 0.013341678 -0.027404483 0.030654581
000060 85 00 4e 3c 25 ad a9 bc 93 65 2c bc 83 2d 9b bc
       0.012573366 -0.020712445 -0.010522264 -0.0189426
000070 97 56 4e bc b5 7b 36 3b d1 73 d6 3c 43 6a ba 3c
       -0.012593887 0.0027844731 0.026178272 0.022755748
000080 97 2e 90 3c 69 3d 99 bc bb 8e ce bb 32 ed 4f 3c
       0.01760034 -0.01870604 -0.006303636 0.012690829
000090 c9 9d 82 3c 1f 5d e6 3c d1 7c 52 3d f2 a9 a4 bd
       0.015944378 0.028120575 0.051388565 -0.08040227
0000a0 27 b8 e5 3c 18 7e 80 3d 94 8d 11 3d 8b 65 b2 3d
       0.028041912 0.062740505 0.03553541 0.08710774
0000b0 2f 7b 27 3e 39 0e 0b 3e b9 e2 23 3d 1d ba e5 3c
       0.16355585 0.13579644 0.04001114 0.028042847
0000c0 60 46 2b 3d c5 06 c6 3c 0a e9 be 3b c9 f1 92 3d
       0.04181516 0.02417315 0.0058261203 0.07175023
0000d0 6c 4d 95 3c 1a 7d d9 3c 3c fc 00 bd ae 3d ea bb
       0.018225394 0.02654891 -0.03149055 -0.007148466
0000e0 dc 93 72 3b 03 69 0f 3c 18 86 14 bd fe 9b 0e 3d
       0.00370144 0.008753064 -0.036260694 0.034816734
0000f0 c8 c9 96 3b 61 50 1b bc be af e6 3c 5d d0 d6 bd
       0.004601691 -0.009479613 0.028159972 -0.10488961
000100 1c 87 24 3c f2 b6 2e bd 98 5b 9b bc 01 ff 0a 3e
       0.010041978 -0.04265494 -0.018964574 0.13573839
000110 08 55 cd bc 2e 53 21 3d 7a ee 9e 3d 1e 03 f3 bb
       -0.02506496 0.039385967 0.077603295 -0.007416143
000120 db 71 cd 3b db d3 8a 3d 08 01 c7 bd 01 5e 54 3d
       0.006269676 0.067786895 -0.097169936 0.05184746
000130 02 41 90 3e 77 3b fa 3d a1 1f 01 be 67 43 fe 3d
       0.28174597 0.12218373 -0.12609722 0.124152
000140 7c c0 29 3e 57 af d7 3d 05 14 7a bc 8e ff 0a 3b
       0.16577333 0.1053149 -0.015263562 0.0021209451
000150 d5 c3 af bc a7 88 b8 bc 98 e0 0f be 15 ba 2a bc
       -0.021455685 -0.022526098 -0.1405052 -0.010420342
000160 42 a2 5f bd bc da 79 be 03 a9 68 be d7 14 53 bd
       -0.0545981 -0.24399847 -0.22720723 -0.051533546
000170 18 99 59 bd 44 e7 90 3d 45 f2 c8 bd ce 26 8b bd
       -0.053124517 0.070753604 -0.09811834 -0.06794511
000180 87 29 1e bd d7 91 26 3e 36 f6 2b 3e 83 90 3f 3d
       -0.038613822 0.16266571 0.16793141 0.046768676
000190 5f 9c fb bc 84 6b c0 ba 69 e9 20 3c f9 cd 0c 3e
       -0.030714212 -0.001468048 0.009821274 0.13750447
0001a0 28 dc 84 3c 77 b0 96 3c d5 ff be 3d e3 07 15 be
       0.01621826 0.018394692 0.0932614 -0.1455379
0001b0 01 a3 d0 bd 51 1e 1a ba 02 35 8d 3c c1 25 92 bc
       -0.101873405 -0.0005879151 0.01723719 -0.017840268
0001c0 9d ee 55 3c a0 e2 97 3b f6 9f 80 bd 7a 03 9a bd
       0.013057378 0.00463517 -0.0628051 -0.07520194
0001d0 9e 64 9d bd 17 51 1b bd a2 a7 10 bc e0 ce 26 bd
       -0.07685207 -0.03791913 -0.008829029 -0.040724635
0001e0 5c e8 9b 3d c6 c9 48 bd 51 5b b8 bd 97 f8 be 3c
       0.076126784 -0.04902055 -0.09001792 0.023311896
0001f0 fb c4 70 bc e3 44 4e be 05 d1 06 be a1 1c 9b 3d
       -0.014695401 -0.20143466 -0.13165672 0.0757382
000200 14 a3 28 3d 77 37 8c 3d db 8a 9a bb 53 60 d3 bc
       0.04117115 0.068465166 -0.00471626 -0.025802767
000210 81 25 4f bd 3c 5b 01 bb 91 b8 03 be de ec 04 3d
       -0.050572876 -0.0019738218 -0.12863375 0.032452457
000220 cf b1 2a 3c d1 bb c9 3d 73 ab c1 3d fa b0 44 bc
       0.010418369 0.09850276 0.094565295 -0.012005085
000230 1e e7 71 3d 70 a0 a8 3d b8 5d 8e 3e d4 52 3e be
       0.0590583 0.08233726 0.27805877 -0.18586284
000240 4a a2 b0 bd fb ec dd 3d e2 16 b3 bd c8 0c 5e bd
       -0.08624704 0.10836216 -0.08744599 -0.054211408
000250 e4 59 0b be dd cf 86 bd b2 2a de 3b b5 80 6a bd
       -0.1360851 -0.065826155 0.006779992 -0.05725165
000260 5b e5 f9 bd d4 dc d5 3d 25 99 ab 38 bb c8 eb bd
       -0.12201949 0.1044251 8.182441e-05 -0.11512896
000270 05 45 b5 3d 1f 62 0f 3e 52 87 c3 bd 00 b0 81 bd
       0.08851055 0.14002274 -0.09547295 -0.063323975
000280 54 d4 3c 3e fd 7b 90 bc 67 2a 8c 3d d6 ac c5 3d
       0.18440372 -0.017637247 0.06844025 0.096521065
000290 ad 29 66 bd f9 b2 62 3e d6 32 28 3e fb 60 d5 3b
       -0.05619209 0.22138585 0.16425642 0.006511805
0002a0 39 42 a9 3d 5d 56 29 3e 9f cc 75 3e e7 f4 9d bd
       0.08264584 0.16536851 0.24003838 -0.07712727
0002b0 7f 3d 60 be f8 37 a8 bd 03 03 b3 bd 49 72 c7 3d
       -0.21898459 -0.082138 -0.08740809 0.09738595
0002c0 8a 09 4b bd 15 76 24 be 95 b4 8f bd 4c b0 37 bd
       -0.049569644 -0.1606067 -0.07016865 -0.044845864
0002d0 48 fa 10 be dd 0a 08 bd 54 74 03 3e 6d fa b8 bd
       -0.14157975 -0.033213485 0.12837344 -0.0903214
0002e0 79 0a ba bc 90 4d 08 be d7 c7 32 3e 68 ba da 3c
       -0.022710072 -0.13310838 0.17459045 0.026700214
0002f0 d3 05 11 bd 26 66 83 bc 19 3c 97 bd 4c de 0a be
       -0.035405945 -0.01603992 -0.073845096 -0.13561362
000300 26 93 24 3a 2e 32 0b 3e 9e 0c 0b 3d 5b a2 24 3b
       0.00062780303 0.13593361 0.03394758 0.0025121185
000310 a7 b1 36 3d 94 50 40 3e f9 64 06 3e 0b f0 4c bd
       0.044603016 0.18780738 0.13124456 -0.05003361
000320 f9 27 d7 bd 5a 8b 25 3e f7 ec da bc a1 09 27 be
       -0.10505671 0.1616644 -0.026724322 -0.16312267
000330 d1 09 1f bd f6 34 d6 3a c5 2c 83 bc 6c 31 b4 bd
       -0.03882772 0.0016342688 -0.016012559 -0.08798489
000340 08 fa 4c 3e 90 e4 04 be fd 50 77 bd ef 1e 7f 3e
       0.20017254 -0.12977815 -0.06037997 0.24914144
000350 8a 0c b7 3d f7 a1 be bd cc 8d 84 bb 62 b2 57 bc
       0.089379385 -0.09308236 -0.004045224 -0.013165088
000360 82 20 97 3b d8 79 aa 3d 73 73 5c 3d b3 1e ae bc
       0.0046120295 0.08324021 0.05382104 -0.021254873
000370 f3 d2 49 bd fc b4 fd 3c 2e 53 16 3e 7e 78 7e 38
       -0.049273442 0.03097009 0.14680168 6.0670536e-05
000380 77 b4 c9 3c 0d 4f 26 3e 6c 76 2b 3e c6 20 83 3d
       0.024622185 0.16241093 0.16744393 0.064027354
000390 7e 9f 54 bd 3d 4b cb bd 43 65 7e 3d 19 4c 44 3e
       -0.051909916 -0.0992646 0.06210829 0.19169654
0003a0 ea 4b d8 bd 43 94 9c 3b 72 96 c8 3d 08 40 0f 3d
       -0.105613545 0.0047784164 0.0979432 0.034973174
0003b0 b8 0a da bd f2 22 c1 3d a2 64 56 bd a1 57 18 be
       -0.10646576 0.094304934 -0.052342065 -0.14877178
0003c0 8a 41 8c 3c cf 9a 96 3d fa 9e 09 3e 0b 1e de bd
       0.017121095 0.07353746 0.13439551 -0.10845574
0003d0 ce 9c 25 3e 9f 5a b9 bd 64 9b 17 bb 2d b9 2d 3d
       0.16173097 -0.09050488 -0.0023133392 0.042412926
0003e0 31 6d c2 3d 4f 29 ba 3e dc ab 63 3e 4b 18 12 3d
       0.09493483 0.3635964 0.22233528 0.0356677
0003f0 c2 d0 dc 3c 13 59 66 3e 6e 9a 13 3e 6a 5a 0a bc
       0.026955012 0.22494917 0.14414379 -0.008444408

fc1.bias f4 [16]
000000 25 fa 09 3d a7 80 14 3f 10 fe b2 bc 4f 58 46 3f
       0.033685822 0.5800881 -0.021849662 0.774785
000010 fc c6 36 3e 2d 03 82 bc 7b b6 ec 3d 11 67 dd 3e
       0.17849344 -0.015870655 0.11558243 0.43242696
000020 fc 35 1f 3e 00 c6 0e 3f b1 c9 41 3e 28 ec 4c 3e
       0.15547937 0.55770874 0.18924595 0.20011961
000030 92 79 84 3e 25 ed 0b 3f 93 97 b9 3e 87 4f af bd
       0.25874 0.5465873 0.36248454 -0.085600905

fc2.weight f4 [8, 16]
000000 0a 3d 56 be 2d af 3e 3e 6c 8e 8d bf 9a 7c 13 3f
       -0.20921722 0.18621512 -1.1059089 0.57612
000010 4e 4f 39 3f 7c 4c 7d bf d3 6f 74 3f 22 03 84 3f
       0.72386634 -0.9894483 0.9548313 1.0313456
000020 15 d8 2d be 13 ae 31 bf 89 e7 35 be 85 cf ea 3d
       -0.1697696 -0.6940624 -0.17764105 0.114653625
000030 91 35 5c 3f 5f f4 a9 3e 79 3b e8 3e 42 29 4c 3e
       0.86019236 0.33194253 0.45357874 0.19937614
000040 f3 3b ed 3d 73 99 a9 3f 7e 71 c9 3e 3f 2e ac 3d
       0.115837 1.3249954 0.393444 0.08407258
000050 55 c2 a7 3e 34 4b fc bd a1 52 9c 3f c0 4b 19 bf
       0.3276545 -0.12319031 1.2212716 -0.5988121
000060 6b 00 a3 be 41 37 1c bf 92 c8 04 bf 94 f9 0c 3e
       -0.31836256 -0.6102181 -0.51868546 0.13767081
000070 25 5c 05 3f 39 69 86 bd 60 7c 0d 3e a7 09 1d bf
       0.52093726 -0.065630384 0.13816977 -0.61342853
000080 85 e3 2c 3f 94 21 bd be 9a 8c 92 bf 26 07 00 be
       0.6753467 -0.3693968 -1.1449158 -0.12502727
000090 f1 47 af 3d 53 f8 30 bc 7f 5d 2b bf 12 7a b5 3f
       0.085586436 -0.010801393 -0.6693954 1.4177878
0000a0 7e 9b 35 3e 96 0e 1a 3e 31 9a 0b 3d 4f c4 7b bd
       0.17735097 0.15044627 0.034082595 -0.06146651
0000b0 10 36 64 bf f2 f7 12 be b1 9e 54 bf 9b f0 08 3e
       -0.8914499 -0.14352396 -0.83054644 0.13373034
0000c0 87 a4 b4 3c c0 a5 f7 3d fe c7 35 be e6 09 fb be
       0.022051109 0.12092161 -0.17752072 -0.4903099
0000d0 91 cf 32 3f 40 54 c1 3e 93 74 53 3f 74 5f 28 3f
       0.6984797 0.3775959 0.82599753 0.6577065
0000e0 14 c1 c2 bd 2b a2 68 be 6a 58 f9 3d 76 a3 3f bc
       -0.09509483 -0.22718112 0.12175067 -0.011696687
0000f0 e0 50 60 3f 9a 03 66 3d 83 e2 b2 bd b4 b8 7d be
       0.87623405 0.05615578 -0.0873461 -0.2477749
000100 8e 56 d8 3d 2e 09 86 bd d6 da 7e be e1 1a 71 3e
       0.10563384 -0.0654472 -0.24888167 0.2354541
000110 ab 45 11 be 0a f8 18 bf 91 82 bf 3e a2 60 d0 be
       -0.14186732 -0.5975348 0.37404302 -0.40698725
000120 9b 19 c9 bd 51 9d 6f 3d 75 77 72 3f 07 e9 23 3f
       -0.09819337 0.058499638 0.94713527 0.64027447
000130 1b 51 3a be 70 d1 a9 3f 35 08 23 3e 28 78 c4 3e
       -0.18195002 1.326704 0.159211 0.38372922
000140 da e7 e2 be 93 e3 ad be 6a c5 18 3e b6 d7 0e 3f
       -0.44317514 -0.33962688 0.14919057 0.557979
000150 e9 d3 1a bf eb b3 d9 3c f3 0f 1c be 8e 64 8a 3c
       -0.604796 0.02657505 -0.15240459 0.016893651
000160 1a 08 ab 3e 7a 6b 14 3f 70 45 ce 3d f5 2d b4 be
       0.33404619 0.57976496 0.10071838 -0.35191312
000170 d0 6f da 3e ce 85 b7 be 8c ec fc bc df 5c 5b 3f
       0.4266343 -0.35844272 -0.030874513 0.85688585
000180 63 29 2b 3f 4b f0 20 3e 84 0d fa 3e d5 a9 83 bf
       0.66860026 0.15716664 0.48838437 -1.0286204
000190 16 fd 37 be 4c e6 d9 be c7 93 50 3f 14 56 57 be
       -0.17967638 -0.42558515 0.8147549 -0.2102893
0001a0 16 18 ce bf 9e 2b 8f 3f 1e 60 26 bd cb fc a6 3d
       -1.61011 1.1185186 -0.04061901 0.08153685
0001b0 4b 68 98 3f dd de a5 be 49 85 65 3f 1d d1 90 be
       1.1906828 -0.32396594 0.896565 -0.2828454
0001c0 11 3b 82 bf 9a b8 05 3d 3c 3c bb 3e c9 72 fd 3d
       -1.0174276 0.032646753 0.36569393 0.12375409
0001d0 c4 b5 00 bf 9b 68 6b 3e 55 3f 0e be fb a3 40 3d
       -0.5027735 0.22989123 -0.13891347 0.047031384
0001e0 44 6c 1c 3e 3b 6d fe 3e 56 9b 4b bf 22 2c 84 3f
       0.15275675 0.4969271 -0.795339 1.0325968
0001f0 44 ef f2 bd 67 58 b5 3f 16 7d 39 3f fd f2 5f 3e
       -0.118620425 1.4167603 0.7245649 0.21870036

fc2.bias f4 [8]
000000 d6 b3 80 bd 44 26 52 3e 2f c1 0d 3f cd 81 0b bf
       -0.06284301 0.2052241 0.553729 -0.54494935
000010 84 ba 33 bf fb 31 63 3d 6a 57 52 3e a2 b0 81 3e
       -0.70206475 0.055467587 0.20541158 0.25330073

fc3.weight f4 [8, 8]
000000 33 98 c1 3f 65 97 74 be 50 d5 4c 3e 39 16 82 3e
       1.5124573 -0.23885877 0.20003247 0.2540758
000010 ad c4 27 be 52 d9 89 bf a9 81 c0 3d 90 0c cf be
       -0.1638362 -1.0769446 0.09399731 -0.40439272
000020 9c c1 1a 3e d0 8f 5a 3e 4b 1a 4e 3d 2d 01 4a bf
       0.15112919 0.21343923 0.050318044 -0.78908044
000030 17 63 82 be 15 52 27 3f cb 07 62 be 57 2d c4 be
       -0.25466225 0.6535962 -0.22073285 -0.38315842
000040 1c a9 a0 be 1e da b7 be fd d2 b5 3e db c8 0b be
       -0.3137902 -0.35908598 0.35512534 -0.13650839
000050 28 cc d5 3e 82 44 d7 be 47 cf 55 3f f6 85 d1 be
       0.4175732 -0.42044455 0.83519405 -0.40922517
000060 c5 cc b6 be 7a 4b bf be d8 8b 82 3e 7e 0f 33 3f
       -0.35703102 -0.37362272 0.25497317 0.69945514
000070 4f 82 d8 3d 88 c6 cc be 24 6b d3 be 22 cf b0 3d
       0.105717294 -0.39995217 -0.4129268 0.086332574
000080 ef 1b 96 be 95 31 23 3e f0 4d 0f be d5 35 95 be
       -0.29318187 0.15936883 -0.13994575 -0.29142633
000090 db 76 75 be ce 83 ab be 54 cc 1a be 98 df 19 3d
       -0.23971121 -0.33498996 -0.15117007 0.03756675
0000a0 c1 14 b8 be 28 c3 3c 3e f7 e0 1e bf e9 b6 6a 3c
       -0.35953334 0.18433821 -0.6206202 0.014325836
0000b0 65 1e 22 be 4f 16 94 be b2 9f a8 3e de 13 8d be
       -0.15831907 -0.2892327 0.32934338 -0.2755422
0000c0 f5 b0 83 3f 92 a9 d8 3e 8d f0 15 be a0 f0 99 bf
       1.0288378 0.42316872 -0.14642544 -1.2026558
0000d0 4e 59 0e bd ff 65 93 3e 6a 7e 48 3d 31 c0 4f 3d
       -0.034753136 0.28788754 0.048948683 0.050720397
0000e0 eb dc b5 3e 3b 89 83 3e df 75 f4 3c f1 d6 73 bc
       0.3552011 0.25690636 0.029841362 -0.014882789
0000f0 89 a0 28 bf 8d ef 1b bf 58 30 2e 3e 01 c6 4e 3f
       -0.6586996 -0.609124 0.17010629 0.8077088

fc3.bias f4 [8]
000000 80 a3 10 bf 7d 2d 6f bd 69 65 6d 3f ee 8a 8c bd
       -0.5649948 -0.05839299 0.92732865 -0.06862436
000010 e3 03 aa be 86 dd a3 be 90 37 43 3f 2a 51 5c 3f
       -0.3320609 -0.32004946 0.76256657 0.86061347

fc4.weight f4 [12, 16]
000000 70 cf 02 3f f4 1e e8 3c 52 aa f1 3e 66 c8 88 3f
       0.51097775 0.028335072 0.47200257 1.0686157
000010 9e a7 06 3e 0f 44 74 3e 9f 14 07 be 49 c3 f5 3e
       0.13149878 0.23854087 -0.1319146 0.48000553
000020 de b2 8d be 26 cc a4 3e 9c a6 11 bc 68 25 9f be
       -0.27675527 0.32187003 -0.00888982 -0.31083226
000030 71 b7 17 3e 8b 03 da be a9 e4 b1 3e 36 29 17 bf
       0.14816071 -0.42580828 0.34744766 -0.5904726
000040 7d 17 59 be e6 28 d6 be ef 79 07 3f f9 70 2c 3f
       -0.21200366 -0.41828078 0.5292043 0.6735988
000050 3b 8c 99 bd 57 34 32 3f f0 56 99 be c8 1d 76 3e
       -0.0749745 0.69611114 -0.2994914 0.24034798
000060 b3 65 41 bf 92 24 a1 3e 98 33 21 3f 2a 54 ca be
       -0.75545806 0.31473213 0.6296935 -0.39517337
000070 30 64 8f be 00 0a fb bd c4 32 b6 bf 43 2e c4 be
       -0.28006124 -0.12257767 -1.4234242 -0.38316545
000080 20 32 a1 bf 00 8e 9c be 74 77 39 3e ec 30 5e be
       -1.2593422 -0.30577087 0.18111974 -0.2169835
000090 3f 2a ad 3e 0e 6c 81 3e 00 c3 bf 3d 71 f5 3f 3f
       0.33821294 0.25277752 0.09363365 0.7498389
0000a0 7f 32 37 bf 2b 46 c7 3b 2f 7d c8 3f 73 87 ad bf
       -0.71561426 0.0060813627 1.5663203 -1.3556961
0000b0 27 18 7b 3e 10 b2 2a 3e 89 dc 65 bf e5 65 38 3f
       0.24520932 0.16669488 -0.89789635 0.7203048
0000c0 8c 01 20 3f 1a ee 8d be 77 fa 98 3d 5b a4 91 3e
       0.6250236 -0.2772072 0.074696474 0.28445706
0000d0 58 47 d1 3e 13 6f 45 bc e3 1d 30 3d 23 48 b3 be
       0.40874743 -0.012050408 0.042997252 -0.35015973
0000e0 14 81 17 bf a2 1e ac 3d b3 9b b3 bc 5e c0 91 be
       -0.5918133 0.0840428 -0.02192483 -0.28467077
0000f0 2d 0a 27 be f2 3e 13 bc 03 81 8e bd 3b 69 c6 bd
       -0.16312476 -0.008987175 -0.06958201 -0.0968804
000100 00 bc 5d bf 6e 16 c8 3d dc 51 86 bd c0 2c cc 3e
       -0.8661499 0.09769903 -0.06558582 0.39877892
000110 7f 75 09 3d 55 1c c0 be fb 9c 4a 3e d0 50 fe be
       0.03355932 -0.37521616 0.19786446 -0.4967103
000120 0f 4b 9f 3f 11 48 0d 3e 56 7f 93 3f 0f cf 4e bf
       1.2444781 0.13797022 1.1523235 -0.80784696
000130 dc b7 ba 3e 13 89 d8 be 45 a1 60 3e ec 04 d1 bf
       0.364684 -0.4229208 0.2193652 -1.6329627
000140 13 d9 78 3d 15 04 cd 3f b3 2e 8c 3e 58 b1 d0 3e
       0.060753893 1.6016871 0.2737938 0.40760303
000150 22 42 3b bf 45 ca 75 3d 3e 38 a0 3e ef 1c ff be
       -0.73147786 0.060007352 0.3129291 -0.49826762
000160 9e d4 ae 3e 8f 78 20 bf 0b d4 f8 be ed d0 39 3f
       0.3414659 -0.6268396 -0.48599276 0.7258442
000170 72 88 84 3e 3d f3 d9 3e 48 74 ad be 45 9a 00 be
       0.2588535 0.4256839 -0.33877778 -0.12558849
000180 8c f9 83 3e 9c 5f 21 3e 1e af d9 be e5 84 37 bf
       0.25776327 0.15759128 -0.42516416 -0.71687156
000190 b6 73 22 3f 4b ea 25 3e ed 32 7a 3e a2 6b ca be
       0.6345781 0.16202657 0.24433489 -0.39535242
0001a0 45 7c 6b bf e1 09 14 be ac fc d0 3f 88 eb c9 be
       -0.91986495 -0.14456894 1.6327109 -0.3943751
0001b0 76 4c 2f 3d 5a 3f 68 be 71 c7 fb 3e 22 53 56 be
       0.04279753 -0.22680417 0.491756 -0.2093015
0001c0 dc dc 58 bd 55 92 46 3f ad 21 12 3f 58 3f 47 bd
       -0.052945003 0.77567035 0.57082635 -0.048644394
0001d0 8e c5 7e bf 85 ae 5c 3e d3 a7 56 3e f9 b7 cb 3d
       -0.99520195 0.21550949 0.20962457 0.099471994
0001e0 7f 11 03 bf a8 09 98 3f ae f5 3e 3d 5b 63 45 bd
       -0.5119857 1.1877947 0.046621017 -0.048190456
0001f0 da b2 24 3e 63 f7 f8 bd cc 5e 40 3f 52 78 ff be
       0.16083851 -0.1215656 0.7514465 -0.49896485
000200 7f 2f 8d 3e 76 48 8b 3f cb df 9e 3e e9 7a e0 3e
       0.275753 1.0881488 0.31030115 0.43843773
000210 17 52 32 3c 6e 12 c6 bd 25 37 cf 3e f2 0e 9a bd
       0.01088383 -0.09671484 0.4047176 -0.07522382
000220 d3 19 0e bf 3b d6 e8 bd 74 82 4c be 0d 86 5e 3e
       -0.55508155 -0.11368986 -0.19971639 0.21730824
000230 3f 32 13 3f 03 77 63 be 9e 5a e5 bf f0 fe ac bc
       0.57498544 -0.22213368 -1.7918279 -0.021117657
000240 e0 4b a0 bd 98 f6 b5 3e db 43 26 3f 84 bc f2 bd
       -0.07826972 0.355397 0.6494729 -0.11852363
000250 5f b9 d9 3e 82 87 7d 3f b9 6c 89 3d b8 e3 1a be
       0.4252424 0.99034894 0.0671019 -0.1512593
000260 14 9a f7 3d 3b 23 c1 be 61 8c 11 3f 4f 68 e3 3d
       0.12089935 -0.3772219 0.56854826 0.1110388
000270 d5 41 21 bf 32 39 34 3e 43 af 08 3f e6 af 14 be
       -0.62991077 0.17599943 0.5339243 -0.14520225
000280 67 3d 5a bf 66 6d f7 be 7b d4 98 3e 26 08 f2 3e
       -0.8524994 -0.48325652 0.2984961 0.47271842
000290 c8 d2 10 3f 25 d3 73 3f 77 0b 30 3e 9f d5 96 3e
       0.56571627 0.95244056 0.17191873 0.29459855
0002a0 17 46 a5 be 66 ec 04 bf e7 38 0f 3f 80 f9 29 bf
       -0.32280037 -0.51923215 0.559462 -0.6639633
0002b0 10 c8 1a 3f 41 c0 2b be 3f b5 7e 3f e6 e4 b0 3e
       0.6046152 -0.16772558 0.9949531 0.34549636
0002c0 66 67 66 be cc 7b a8 3f 88 82 5a bf 63 70 f6 bd
       -0.22500381 1.316278 -0.85355425 -0.12033155
0002d0 35 28 75 be 66 2b 01 bf 82 c8 99 3e eb ab 69 be
       -0.23941119 -0.50456846 0.30035788 -0.22819488
0002e0 74 66 54 3d 67 ff 28 3e 18 dd 62 3f a2 79 a5 3b
       0.05185552 0.16503678 0.8861861 0.0050499
0002f0 a5 68 2c be 03 97 89 be 03 d7 5b 3f ea e2 19 3f
       -0.16836794 -0.26873025 0.85874957 0.6011187

fc4.bias f4 [12]
000000 29 5a 3f bf a3 bc dd 3f 89 b5 3a be 5f cb f9 bd
       -0.7474695 1.7323192 -0.18233313 -0.12196993
000010 2a 06 21 3f 28 47 41 3e 7e 02 84 3d 20 e8 2c 3f
       0.6290003 0.188748 0.06445788 0.67541695
000020 de 7d 81 3a 23 fa 9e bf 05 ef 49 be 37 6b af 3e
       0.000987943 -1.2420086 -0.19720085 0.34261486

fc5.weight f4 [8, 12]
000000 64 da cb 3e ec 2f 37 3f fd 29 48 bf b7 80 18 3f
       0.39815056 0.715575 -0.7818907 0.59571403
000010 37 9e 11 be cd 84 28 bf 4e da 7d 3e 72 cc 68 be
       -0.1422051 -0.6582764 0.24790308 -0.2273424
000020 88 01 08 3f 7e ef 99 3e 4c ea d3 3d 10 1a d8 bd
       0.53127337 0.3006553 0.10347423 -0.10551846
000030 f7 ff 7c bf 5d a2 c7 3d 4c 10 ee 3d 99 9b af 3e
       -0.9882807 0.09747765 0.11624202 0.342984
000040 bf cb ba be 45 e5 f5 3e ef 6a e1 3e fa b2 25 bd
       -0.3648357 0.4802648 0.44026896 -0.04045389
000050 26 f1 05 ba 11 33 1d 3d 6f ce be 3e 87 1b 61 3e
       -0.0005109481 0.03837878 0.3726687 0.21983157
000060 94 a0 f9 bd 56 dd 9e 3e 5a f4 21 bf a1 a1 b0 be
       -0.12188831 0.3102824 -0.63263476 -0.34498313
000070 2c 45 89 3e 44 b7 da 3e 00 c3 23 3c 3d ce d8 be
       0.26810586 0.42717946 0.009995222 -0.42344847
000080 9d df 40 3f b5 4a d9 3e 17 83 4e 3f b3 b8 f1 bd
       0.75341207 0.4243981 0.8066878 -0.11802807
000090 af 7a 6c 3f f4 8b 46 bf e1 ea 63 3f 6f 7e 97 be
       0.923747 -0.775573 0.8903027 -0.2958865
0000a0 ad 54 9f 3e 37 57 8a 3e 08 c2 4d be 26 4d 2e bd
       0.3111929 0.27019665 -0.20093548 -0.042554043
0000b0 45 6b be be 17 12 83 3d b4 cf 42 bf ee f4 fe 3e
       -0.37191215 0.06399935 -0.7609818 0.49796242
0000c0 2c e1 6f 3e 78 72 51 be df 35 0d 3f 09 01 c6 3e
       0.2342574 -0.20453823 0.55160326 0.38672665
0000d0 b3 80 84 3f 68 32 f9 bd 24 fa da be 5a 2a c1 3e
       1.0351776 -0.12167817 -0.42768967 0.37727624
0000e0 77 20 f9 3d 1b 07 1d 3f 2c c2 03 be 91 03 2c be
       0.12164395 0.6133897 -0.1286704 -0.16798235
0000f0 df 60 5b bc d8 fc 45 3f a8 1c b0 be 8d 8d 2b 3e
       -0.013389795 0.77338934 -0.34396863 0.16753216
000100 3c 1b 26 bf a6 ad 94 3e bc 7e 17 be c4 02 5d 3f
       -0.64885306 0.29038733 -0.14794439 0.86332345
000110 3e ed fc be 5b 44 e5 be 58 7a fc 3e 49 85 00 3e
       -0.4939975 -0.44778714 0.4931209 0.12550844
000120 2a 66 95 be 75 bf 37 3f df 57 15 3f 2c 18 9b 3e
       -0.29179507 0.71776515 0.58337206 0.3029188
000130 56 13 fe 3e 19 03 50 3f b6 06 a4 be cb 83 bc be
       0.49624127 0.81254727 -0.3203637 -0.368193
000140 c8 d5 87 3c e7 dd da bd 18 66 e4 bd e7 25 0c 3f
       0.016581431 -0.10686856 -0.11152285 0.54745334
000150 a8 a0 f1 3d 45 2d 2e be 65 fc 72 3e 5a 68 57 3e
       0.11798221 -0.17009456 0.23729093 0.210359
000160 e4 b0 63 be 28 ba fb bd 00 27 7d bf b6 e4 49 be
       -0.22235447 -0.12291366 -0.98887634 -0.19716153
000170 7e a4 d8 bd 9e f0 c4 3e 15 5a bd 3e 6a 3b 87 3f
       -0.105782494 0.38464826 0.3698279 1.0565007

fc5.bias f4 [8]
000000 06 29 01 3f 53 3a 8d 3f 87 1a 93 bf 3f 53 b6 be
       0.5045322 1.1033424 -1.149247 -0.35610387
000010 ff 19 f7 bd 77 3d 4e 3e c0 26 e3 3e 2e 7b 33 bf
       -0.12065505 0.20140634 0.443655 -0.7010983

output.weight f4 [47, 16]
000000 99 b6 0e 3e f2 ff 0f 3c d8 66 aa be d6 61 3f 3f
       0.13936843 0.008789049 -0.3328159 0.7475866
000010 d7 1b 41 3f 32 40 93 3e 35 95 d9 bd c3 e5 6a be
       0.75433105 0.28759915 -0.10624162 -0.2293921
000020 38 ee 5c be 9d 5c 9a 3d e3 ae c0 bd fd 1d 80 be
       -0.21575248 0.07537196 -0.09408357 -0.2502288
000030 43 5e 4b bf b6 91 8f be 78 fd 2a 3e 59 fc 62 be
       -0.79440707 -0.28040856 0.16698253 -0.22166575
000040 d6 55 27 3e 08 16 df be 94 1d 52 bf 0c 9c 1e be
       0.16341338 -0.43571496 -0.8207638 -0.15489215
000050 d5 c4 e5 3d f3 bc 93 bf 8d 3f cf 3d 54 d3 e3 3e
       0.11219183 -1.1542038 0.10119543 0.44497168
000060 71 17 17 3f 50 a0 c4 3e db 22 96 be bc c6 87 3f
       0.59020144 0.3840356 -0.29323468 1.0607524
000070 35 8f 1a 3e 47 f8 ad 3e b0 fd 2c 3e a5 e7 89 bf
       0.15093692 0.33978483 0.16893649 -1.0773817
000080 c8 78 f2 be db 69 a5 3e 67 93 e5 bd d9 f2 54 3e
       -0.47357774 0.32307324 -0.112097554 0.20795764
000090 53 e3 8d be 49 d2 54 bf 38 d5 88 3f b0 b8 b8 be
       -0.27712497 -0.8313337 1.0690069 -0.36078405
0000a0 5b 63 eb 3e 48 0f 4a 3e f4 55 92 3e 0c fd b0 3e
       0.4597424 0.19732392 0.28581202 0.3456806
0000b0 33 9a 51 3e fb 3a b7 be 01 ea ed 3d c8 96 da 3e
       0.20468979 -0.35787186 0.11616898 0.42693162
0000c0 2b 28 4f be 6d bd 8d 3d a8 37 04 bf db 0e 48 3e
       -0.20230167 0.06920896 -0.51647425 0.19536917
0000d0 76 52 04 3f fc 0e 85 bf 55 cd 37 3f e3 0c 8d be
       0.51688325 -1.0395198 0.71797687 -0.27548894
0000e0 e3 a4 c6 be 1e 85 5c 3d 82 08 82 3f a8 1e b4 3b
       -0.38797674 0.053837888 1.0158846 0.0054968186
0000f0 99 fd 03 bc db 23 bf 3e e9 dc ca be de 76 22 3f
       -0.008056068 0.37332043 -0.39621666 0.63462627
000100 b8 04 29 be 0f 1e ab bf 62 4b 33 3f d5 4a 43 bf
       -0.16505706 -1.3368548 0.700369 -0.7628606
000110 6a f0 b8 be 8c d8 ab 3e 6f 7b 97 be 5b 7b 7b 3f
       -0.3612092 0.3356365 -0.2958636 0.982351
000120 56 25 e8 3e 66 7a 2f bd b8 fd c6 3e cd 74 d1 be
       0.45340985 -0.042841338 0.38865447 -0.40909424
000130 db 00 24 3d 41 70 39 bb 9b d3 bc be 82 94 5d 3c
       0.04003988 -0.0028295668 -0.36880192 0.013524177
000140 02 54 4d 3f 68 1a e4 be 32 f6 aa be 90 8f 05 be
       0.8020631 -0.44551396 -0.33390957 -0.13043046
000150 ad 86 62 3f 86 bf 61 be 5f 85 22 bb 6c d9 bc bd
       0.8848675 -0.22045717 -0.0024798734 -0.092211574
000160 74 60 c5 be d2 a5 cb 3d 4a 0f c0 3e 55 64 db be
       -0.3855015 0.09943737 0.37511665 -0.42849985
000170 6f 3b c5 3b 5b c1 74 3e 56 76 05 bf b7 1c 69 3e
       0.006019048 0.23901884 -0.5213369 0.2276486
000180 25 b1 11 3f d4 98 80 bc 82 ca e0 3e cf 2f df be
       0.56910926 -0.015697874 0.439045 -0.43591163
000190 03 96 54 3f d4 8d 25 3c d8 c9 22 bf 1f 3f 69 be
       0.830414 0.010104615 -0.6358924 -0.22777985
0001a0 24 22 73 3e cd 14 31 bf f9 14 01 be 8e b4 33 be
       0.23743492 -0.69172364 -0.12605657 -0.17549345
0001b0 6b 32 dc be eb cb e9 be 17 8f d7 3e 6e ff 46 3d
       -0.43007216 -0.4566339 0.42101356 0.04858344
0001c0 bd f2 d3 be 20 8a a0 3e 0d f2 1a bf a1 29 34 3f
       -0.41396132 0.3135538 -0.6052559 0.7037602
0001d0 66 66 05 be f5 08 2a be 1e 17 39 3f db 93 83 3f
       -0.13027343 -0.1660498 0.723009 1.0279497
0001e0 4e e9 96 bd 10 80 43 be 06 fe 24 3e 24 5c e6 bc
       -0.07368718 -0.1909182 0.16112527 -0.028120108
0001f0 1a 22 5e bf a3 16 23 bf 16 ac 67 3e 4d 04 12 3d
       -0.86770785 -0.63706416 0.2262424 0.035648633
000200 e5 6f 8e bd 31 2c a0 be 9b 26 dc be 02 b5 16 3f
       -0.06954936 -0.31283715 -0.42998204 0.58869946
000210 bc f0 12 3f c7 0b 24 3c 27 19 89 bd 8e cb 14 bd
       0.5739858 0.010012574 -0.066942506 -0.036326937
000220 3a b1 ca 3d 90 a2 04 bf 00 5b 83 be 88 6a 7a 3e
       0.098970845 -0.5181055 -0.25655365 0.24454701
000230 ec 17 06 3e 6e 77 56 3d 62 46 e7 be 07 a5 07 3f
       0.13095063 0.05235999 -0.45170885 0.52986187
000240 f5 a3 4b be 80 c4 75 be 7b a8 08 3e 4c 6d 5b 3e
       -0.19886763 -0.2400074 0.1334552 0.21428412
000250 26 1f d7 bd 33 e6 ae bd aa 8c 5c be ff ef 40 3f
       -0.10503988 -0.08540001 -0.21538034 0.75366205
000260 f8 aa c7 3e 77 fe 00 3e e1 8d 7c 3e d3 e4 b2 be
       0.38997626 0.1259707 0.24663498 -0.34940204
000270 78 f1 9a 3d 96 63 f2 be 42 15 4f bf d9 54 8c 3e
       0.07565588 -0.47341603 -0.8089181 0.27408484
000280 d5 3e 0e be 74 21 a7 bd ac aa 17 3f d2 0f 0b bd
       -0.13891156 -0.081606776 0.592448 -0.033950634
000290 05 73 92 bf 5a e0 44 3d f9 b8 97 3c 9c 0b 26 bf
       -1.1441351 0.04806552 0.018520819 -0.64861465
0002a0 a4 43 38 3d b8 47 a6 3e 05 4f 83 3e 26 e7 13 be
       0.044986382 0.32476592 0.25646225 -0.14443645
0002b0 f4 d6 1a 3e 56 fb d2 bc 00 3b 9d 3e 68 64 19 3f
       0.1512106 -0.025754612 0.30709076 0.5991883
0002c0 5b 26 a6 be 61 f7 13 3e 2d bb 0b bf 34 10 0f 3f
       -0.32451138 0.14449836 -0.5458248 0.558841
0002d0 ef 0a 06 3f d5 34 74 bd 5f 89 1e bb 6a 74 32 bf
       0.52360433 -0.059620697 -0.0024190766 -0.69708884
0002e0 70 5e 4e 3e 82 d6 83 be 51 c6 67 be f8 8f d8 bd
       0.20153213 -0.25749594 -0.22634245 -0.10574335
0002f0 6b a0 a6 3d a4 e2 35 3e e9 f3 33 3d 8e 5d 48 3f
       0.08136066 0.17762238 0.043933783 0.78267753
000300 dc 81 8d 3e 26 9c 20 be 97 35 09 bf 2a 15 aa 3e
       0.27638137 -0.15684566 -0.53597397 0.33219272
000310 ad 80 a7 3e 93 9c f8 bd 7f 5f 31 3f f6 d5 d0 be
       0.3271536 -0.12139239 0.6928634 -0.4078824
000320 e9 64 8c 3e 69 2c 2e be ce 83 16 3e 8f 92 3e bf
       0.27420738 -0.17009129 0.14698717 -0.7444238
000330 1f 38 05 3f 47 4e 19 bf a3 da 9f 3e 97 4b 1e bf
       0.5203876 -0.59885067 0.31221494 -0.6183409
000340 c4 16 17 be 76 44 30 3d e9 fc b4 be f3 02 23 3f
       -0.14754778 0.04303404 -0.35349205 0.63676375
000350 83 09 09 3f f6 0d da bd 5d d7 fe 3e ad c6 a8 be
       0.5353014 -0.10647194 0.49773684 -0.32964078
000360 5d 70 49 bd 8a dd c8 3d 96 4a 4d bf 55 b4 40 3e
       -0.049179424 0.0980788 -0.80191934 0.18818791
000370 18 f0 3c bf 0a 12 98 be 37 66 a0 3e 78 02 0c 3f
       -0.73803854 -0.29701263 0.31327984 0.54691267
000380 b5 33 fe 3e cd 23 31 be ec 82 3d be 80 40 52 3e
       0.49648824 -0.17298813 -0.18506974 0.20532417
000390 02 f0 90 3e 89 67 8f 3e 54 07 90 bd 8d 02 27 bf
       0.2830811 0.2800868 -0.07032648 -0.6523827
0003a0 a1 b8 1d be cd 5b f1 be ad ed ed 3d 68 4d e0 3d
       -0.15402462 -0.4714035 0.11617599 0.10952264
0003b0 07 22 cd 3e 64 ca 11 be 90 5d 99 bb 80 d6 f9 3d
       0.40065023 -0.14237362 -0.004680343 0.12199116
0003c0 04 8e c1 3e c8 39 53 be 89 5e 47 3f 64 ca 2a bb
       0.37803662 -0.2062751 0.77878624 -0.0026060576
0003d0 fa 6d e7 be 31 01 51 be 63 73 68 bd e3 a0 01 3f
       -0.45201093 -0.2041061 -0.056750666 0.5063612
0003e0 5e b4 16 bf 89 b0 8c bd 40 c9 7a 3e df 25 35 be
       -0.5886897 -0.06869609 0.24490833 -0.17690228
0003f0 cc 60 fa 3e 18 3b 0d bf f0 22 d9 bd e1 05 24 3d
       0.48901975 -0.55168295 -0.10602367 0.04004467

output.bias f4 [47]
000000 94 23 f4 3d 84 6d e3 3e fa 51 64 3e 8c 07 92 bf
       0.119208485 0.4441949 0.22296897 -1.1408553
000010 e0 2e 26 bf b4 02 94 be c4 a1 04 bf 10 ff 57 be
       -0.64915276 -0.28908312 -0.51809335 -0.21093392
000020 fc 76 23 bf 20 dc db 3d e6 3f 83 3e 4f 11 e4 bd
       -0.6385343 0.10735345 0.25634688 -0.11136114
000030 ac dd 29 3f bf 99 5d 3f 45 64 61 bf 0a 94 ae 3e
       0.6635387 0.8656272 -0.88043624 0.3409732
000040 8a d2 10 3f b7 ec a6 3e 26 64 25 3f 5e d5 a2 3e
       0.5657126 0.32602474 0.6460594 0.3180341
000050 fb 8e 84 3e 90 93 8a 3f 7e 92 6b 3f 01 07 72 3e
       0.25890335 1.0826283 0.92020404 0.23635484
000060 75 0d 96 3e 6a 5a 2e 3f 71 8d e8 3e a8 5e d5 3d
       0.29307142 0.6810671 0.4542041 0.10418445
000070 8a 11 b9 3d be 93 04 bd 37 8f c6 3e 9f c8 47 3e
       0.090365484 -0.03236746 0.3878114 0.19510125
000080 86 8a 8e be 2e 91 22 bf 67 77 3b 3f 7f 3e 64 bf
       -0.2784006 -0.63502777 0.7322907 -0.8915786
000090 dd 63 59 bf 5e db 89 be 06 b6 c3 be af 56 1f bf
       -0.84918004 -0.26925176 -0.3822481 -0.62241644
0000a0 1f 95 b1 be 13 9d 1d 3f fc 5c 87 3f e1 e9 e3 be
       -0.34684083 0.615678 1.0575252 -0.44514373
0000b0 a8 ef b7 bd 2c 64 5f be cd 08 22 bf
       -0.08981258 -0.21815556 -0.6329468
